hw7/model.pt (torch, 5527 bytes, 5 tensors)

affine1.weight f4 [128, 3]
-0.2998093 0.39494538 -0.530454 -0.07617761 0.0049510165 0.49165452 -0.41147807 -0.4225071
0.53058994 -0.05337124 0.25119412 0.47385198 0.3065888 -0.24174714 -0.23639543 -0.31436765
0.4412888 -0.17409864 -0.17422192 -0.3137155 0.029650228 0.60567963 -0.5074878 0.091615744
0.29184514 -0.48114747 -0.46973076 -0.07357789 0.5838741 0.55337864 -0.56022197 0.060595017
-0.49426666 -0.56407905 -0.42702293 0.28502607 0.5083718 -0.5258801 -0.036550287 -0.1573959
-0.112819016 -0.21786581 0.46053296 0.054541547 -0.055351015 -0.018210681 -0.37704915 0.2662429
0.4491374 -0.5672131 0.068556465 -0.5648819 -0.34406847 -0.120030835 0.2258903 -0.4739024
0.2262121 0.24851182 -0.54732007 0.0723771 0.46436286 0.5262017 0.50343394 -0.21117505
0.5335705 0.1624803 0.28353637 0.0055931406 -0.0026067016 -0.15711333 0.22061805 0.12631886
-0.28407806 0.13458416 -0.22802512 0.63255376 -0.23335057 -0.38761508 -0.3440696 0.18410242
0.24415493 0.22407645 0.60991514 0.4010757 -0.13614285 -0.013933312 0.3975505 0.40998605
-0.19985192 0.5477536 0.07191064 -0.03390831 0.3870786 -0.52497774 0.17522705 -0.016674982
-0.059447657 -0.38813174 0.5068983 0.50954866 0.34031066 -0.0044667064 -0.07485895 0.11923321
-0.42243662 0.05442281 -0.38101503 -0.02678799 -0.2109501 0.47192544 0.27439386 0.21238004
-0.24983326 -0.22869328 -0.3063132 -0.52196336 -0.5138541 -0.44714215 -0.27489662 0.31105813
-0.31117275 0.004625602 -0.023525372 -0.20444888 -0.08591695 -0.3640931 -0.18912894 -0.22406155
0.09625298 0.13443063 -0.16810668 -0.22306633 -0.08597939 0.10935308 0.25271657 0.27682126
-0.17741951 -0.48728588 0.39260283 -0.08234239 -0.31902477 -0.05332873 -0.44627398 -0.33150718
0.06623646 -0.44807625 0.40451264 0.33516017 0.1288838 0.3183741 0.36914304 -0.20352869
-0.43904904 -0.28152105 0.40795696 0.10566148 0.020074824 -0.121962875 -0.41247687 -0.26237595
0.12714931 -0.1563516 0.48577037 0.091408044 0.1524762 -0.32960582 0.36580858 -0.3785329
0.5313133 -0.045906898 0.2503526 0.08291107 0.080560125 0.3537398 -0.009947125 -0.029946538
0.01948958 -0.0044390876 0.18249242 -0.41540125 0.3082825 0.6386757 -0.3361058 0.42075685
0.5488403 -0.27291593 -0.4740697 -0.3793804 0.30276042 0.3489357 -0.20989269 -0.24198814
-0.056691565 0.6443368 -0.30322474 -0.5678606 0.35328504 -0.21160759 0.3382532 -0.041081153
-0.4904944 0.5433713 0.09608615 -0.15586731 -0.064151175 0.27282584 0.48270705 -0.53482836
0.07522429 -0.40098783 -0.21239573 0.25479445 0.2944707 -0.36503002 0.013352425 0.07992631
-0.26826045 -0.08907893 -0.5531374 0.0681574 -0.19457896 -0.16754255 0.06652547 -0.48241872
0.1937849 -0.4782182 -0.17623757 0.050742503 -0.26078153 0.4551772 -0.5981782 0.09984421
-0.18842801 -0.35268548 -0.020525068 0.14122988 -0.3326035 -0.3931908 0.03953717 0.38315353
0.37578073 0.20314234 -0.39953133 0.16822876 0.2021402 -0.47909155 -0.26261887 -0.51448697
0.32955876 -0.4105835 -0.46251366 -0.23687974 -0.25105032 0.06403537 -0.5709916 -0.22755022
00000000: 9b80 99be 4836 ca3e d5cb 07bf 0203 9cbd
00000010: 233c a23b 24ba fb3e 41ad d2be da52 d8be
00000020: bed4 073f cd9b 5abd 849c 803e ba9c f23e
00000030: 35f9 9c3e 908c 77be a511 72be ccf4 a0be
00000040: 9bf0 e13e ea46 32be 3b67 32be 519f a0be
00000050: 09e5 f23c d20d 1b3f b8ea 01bf 09a1 bb3d
00000060: ba6c 953e f658 f6be 8d80 f0be 01b0 96bd
00000070: c678 153f 39aa 0d3f b56a 0fbf 7b32 783d
00000080: 8510 fdbe 7c67 10bf c0a2 dabe f0ee 913e
00000090: a724 023f 14a0 06bf c1b5 15bd 642c 21be
000000a0: a80d e7bd 3718 5fbe faca eb3e f566 5f3d
000000b0: bfb7 62bd 912e 95bc 960c c1be fd50 883e
000000c0: 56f5 e53e e134 11bf 5567 8c3d 1a9c 10bf
000000d0: be29 b0be bad2 f5bd c94f 673e 56a3 f2be
000000e0: 25a4 673e e279 7e3e 2b1d 0cbf 723a 943d
000000f0: f8c0 ed3e 28b5 063f 0ce1 003f 463e 58be
00000100: 1498 083f 3c61 263e ae2b 913e aa46 b73b
00000110: 32d5 2abb 51e2 20be b3e9 613e bb59 013e
00000120: ae72 91be 6ed0 093e 6b7f 69be 0bef 213f
00000130: 74f3 6ebe 7c75 c6be e429 b0be 5885 3c3e
00000140: c003 7a3e 4c74 653e 6623 1c3f cb59 cd3e
00000150: 0869 0bbe 8c48 64bc bd8b cb3e b1e9 d13e
00000160: fba5 4cbe 9439 0c3f e345 933d 71e3 0abd
00000170: 2b2f c63e f164 06bf b86e 333e f999 88bc
00000180: 637f 73bd 34b9 c6be 16c4 013f c871 023f
00000190: 333d ae3e 735d 92bb a64f 99bd 8b30 f43d
000001a0: 9d49 d8be 74ea 5e3d 6714 c3be 7d72 dbbc
000001b0: 4e03 58be 36a0 f13e 5a7d 8c3e 277a 593e
000001c0: 4ad4 7fbe 922e 6abe 15d5 9cbe 649f 05bf
000001d0: f18b 03bf d1ef e4be 40bf 8cbe 0343 9f3e
000001e0: 0952 9fbe 5d92 973b 48b8 c0bc 0c5b 51be
000001f0: 3af5 afbd 696a babe 04ab 41be 6470 65be
00000200: 4820 c53d 2fa8 093e 2824 2cbe 806b 64be
00000210: f615 b0bd 82f4 df3d 1164 813e 84bb 8d3e
00000220: 76ad 35be 897d f9be 3d03 c93e 21a3 a8bd
00000230: 3757 a3be 3a6f 5abd 067e e4be 4fbb a9be
00000240: fba6 873d 406a e5be 481c cf3e 1d9a ab3e
00000250: 1dfa 033e ee01 a33e 5100 bd3e d369 50be
00000260: 09cb e0be 8723 90be bcdf d03e 0c65 d83d
00000270: f573 a43c acc7 f9bd 2b30 d3be 2456 86be
00000280: 6e33 023e a21a 20be e5b6 f83e 2434 bb3d
00000290: b922 1c3e 18c2 a8be 434b bb3e 10cf c1be
000002a0: 2604 083f df08 3cbd 372e 803e 47cd a93d
000002b0: b5fc a43d 621d b53e 44f9 22bc 7152 f5bc
000002c0: 9da8 9f3c c475 91bb 4bdf 3a3e 79af d4be
000002d0: 34d7 9d3e 4080 233f 0f16 acbe 716d d73e
000002e0: cc80 0c3f a3bb 8bbe 44b9 f2be 263e c2be
000002f0: 6a03 9b3e b3a7 b23e 1cee 56be bdcb 77be
00000300: 6a35 68bd 42f3 243f 4640 9bbe 505f 11bf
00000310: c7e1 b43e a9af 58be 862f ad3e b644 28bd
00000320: 1522 fbbe 621a 0b3f d1c8 c43d ae9b 1fbe
00000330: b161 83bd d4af 8b3e 6125 f73e 83ea 08bf
00000340: 310f 9a3d 474e cdbe 447e 59be 6b74 823e
00000350: ddc4 963e 37e5 babe 21c4 5a3c 68b0 a33d
00000360: 6f59 89be 046f b6bd 6a9a 0dbf 1b96 8b3d
00000370: b53f 47be 4690 2bbe 813e 883d 96ff f6be
00000380: 8c6f 463e 04d9 f4be 9f77 34be 5fd7 4f3d
00000390: 2885 85be fc0c e93e 3522 19bf 1f7b cc3d
000003a0: 46f3 40be 3193 b4be 3024 a8bc 919e 103e
000003b0: 024b aabe 4e50 c9be baf1 213d b32c c43e
000003c0: 5566 c03e 8c04 503e 5f8f ccbe 2944 2c3e
000003d0: d7fd 4e3e 7d4b f5be fb75 86be 6bb5 03bf
000003e0: edbb a83e 0038 d2be 97ce ecbe 9a90 72be
000003f0: ab89 80be fa24 833d 812c 12bf ed02 69be

affine1.bias f4 [128]
-0.4829293 -0.040884096 -0.53538984 0.19351114 -0.0126491375 0.33608863 0.51864743 0.5641094
0.6520526 -0.35275245 -0.20937465 -0.40637144 0.11076631 0.29897213 0.27664074 -0.26867738
-0.4477011 0.48764032 0.4604865 -0.0902006 -0.044053763 -0.5044425 -0.039405156 0.17319876
-0.17308426 0.122071266 0.47772515 -0.25694215 -0.2229959 -0.088019125 -0.49815685 0.25313687
-0.03812671 -0.4605612 0.1897665 0.07247898 -0.16476771 -0.2181038 -0.40607437 0.23175201
0.2976712 -0.12442063 0.25342736 0.20089817 0.36737972 0.024555538 -0.19063166 0.64053184
0.37741444 0.17224652 0.38440958 -0.49713248 0.5260659 0.2649872 -0.17991538 -0.032524224
0.16937394 -0.57112205 0.3305867 0.07244117 -0.052030858 0.17967261 -0.16187713 0.38465542
0.06441203 -0.09350403 0.39369658 -0.11551419 0.31423375 -0.16991471 -0.16796699 -0.15476409
0.024627835 0.016863251 0.4570271 -0.08546319 0.4220862 -0.21441096 0.35249078 0.49358946
-0.5857623 -0.48683926 0.40222183 -0.23693609 0.56243765 -0.32659915 -0.045282792 -0.17226802
0.63551366 -0.42286795 -0.14414817 0.070037186 0.21092275 -0.335087 0.2911222 -0.18729952
0.5332147 0.52072364 -0.12701608 0.37486076 -0.4369275 0.14686921 -0.33699682 0.17982759
-0.2769726 -0.21950327 0.2853815 0.38796088 -0.38296077 -0.18829462 0.20080595 0.19161977
0.4071086 -0.06407265 0.4957376 0.27548975 -0.23548897 -0.057546794 -0.070332676 -0.03384273
0.18200281 -0.4064059 -0.46950167 0.0032811277 0.51887834 -0.17860317 -0.30273193 -0.16590305
00000000: 8242 f7be 1576 27bd 4f0f 09bf c927 463e
00000010: 543e 4fbc cf13 ac3e 14c6 043f 7969 103f
00000020: ebec 263f f89b b4be 4f66 56be eb0f d0be
00000030: 72d9 e23d e012 993e dba3 8d3e 1590 89be
00000040: 1439 e5be feab f93e e3c4 eb3e 18bb b8bd
00000050: b871 34bd 2523 01bf 4d67 21bd 045b 313e
00000060: 003d 31be 8000 fa3d 6498 f43e ec8d 83be
00000070: 0a59 64be 5f43 b4bd 6a0e ffbe 289b 813e
00000080: c12a 1cbd adce ebbe 2652 423e dc6f 943d
00000090: deb8 28be 9a56 5fbe fbe8 cfbe 6650 6d3e
000000a0: 5c68 983e 3ed0 febd 3bc1 813e 40b8 4d3e
000000b0: 3219 bc3e b228 c93c f234 43be e5f9 233f
000000c0: 773c c13e 6461 303e 55d1 c43e 2688 febe
000000d0: 41ac 063f 67ac 873e bd3b 38be 1f38 05bd
000000e0: 5d70 2d3e 0e35 12bf a942 a93e 095c 943d
000000f0: 4f1e 55bd 19fc 373e 1ec3 25be 8ef1 c43e
00000100: 74ea 833d 0a7f bfbd 9992 c93e b492 ecbd
00000110: 3fe3 a03e 1ffe 2dbe 8aff 2bbe 7a7a 1ebe
00000120: 50c0 c93c cd24 8a3c 75ff e93e 5307 afbd
00000130: af1b d83e 8c8e 5bbe ac79 b43e c2b7 fc3e
00000140: 85f4 15bf ff42 f9be 05f0 cd3e 609f 72be
00000150: eafb 0f3f 0138 a7be 737a 39bd 0767 30be
00000160: 06b1 223f 2682 d8be 949b 13be a86f 8f3d
00000170: 22fc 573e 8690 abbe f80d 953e 72cb 3fbe
00000180: c280 083f 254e 053f 8110 02be c0ed bf3e
00000190: f6b4 dfbe e264 163e d98a acbe b924 383e
000001a0: 5acf 8dbe 77c5 60be 861d 923e cfa2 c63e
000001b0: 6f13 c4be 4ed0 40be 13a0 4d3e f937 443e
000001c0: 8a70 d03e 8638 83bd 52d1 fd3e fe0c 8d3e
000001d0: 0524 71be 30b6 6bbd 940a 90bd ad9e 0abd
000001e0: f25e 3a3e 6f14 d0be 8662 f0be 3008 573b
000001f0: 36d5 043f c0e3 36be aeff 9abe 7de2 29be

action_head.weight f4 [2, 128]
0.04047269 -0.04262847 0.044536997 -0.0300696 -0.034452423 0.004910711 -0.154806 -0.012899914
-0.094562225 0.22813362 0.069491066 0.018461047 0.019556582 -0.10437289 -0.018454565 -0.047336716
-0.04624432 -0.3740136 -0.12906875 -0.06751567 0.10497928 0.03752151 0.1352034 0.06751431
0.0071430476 0.104415335 0.05043831 0.107103854 -0.073176034 0.079290986 0.12161112 0.03961788
-0.026343523 0.07289032 0.04130051 0.047576025 0.1320608 -0.026653862 0.03619233 -0.1709106
-0.11676415 0.030934142 -0.3172504 -0.08800895 0.06162384 -0.047184918 0.005140272 -0.35875097
-0.09457883 0.052632872 -0.04711901 -0.078566805 -0.099663764 -0.07704213 0.15064329 0.29499692
-0.061461303 0.07403289 0.06337691 0.018105598 0.13109675 0.039837215 0.012836697 -0.108961225
0.09661389 0.25218168 -0.06801692 0.09510067 0.07066444 0.08245779 0.12945732 0.0012957627
-0.059312142 -0.0054567293 -0.1306688 0.03970701 0.0050520105 0.03194338 -0.063457444 0.0062329965
-0.056151967 0.050573528 -0.1816169 0.012417979 -0.012721403 0.1623039 0.1506297 0.098602995
-0.20727848 0.07274703 0.072302416 -0.027681839 -0.10480977 -0.049348965 0.09346263 0.30321497
-0.049598254 -0.09143451 0.15735066 -0.2168302 0.046906553 0.06868518 0.047462873 0.08193174
0.094264604 0.2042603 0.08146496 -0.00463145 0.009770336 0.09180695 -0.11104806 -0.04366616
0.06348155 0.15470569 0.014303813 -0.14960912 0.0663481 0.012708459 0.1672123 0.19186875
0.029516032 0.2524539 0.15805048 0.005825558 -0.3478722 0.039358817 0.18043081 0.012288418
0.060733017 -0.05768886 0.041699775 0.014406962 -0.013698773 0.025515664 0.13494936 0.058206882
0.22896974 -0.22060841 -0.05048753 -0.010423274 -0.0642931 0.009024241 0.024319638 -0.06368576
0.005005564 0.3673651 0.17801625 0.004652619 -0.03970652 -0.04218138 -0.0711366 0.043468416
-0.022696236 -0.114286624 -0.044614248 -0.17871621 0.0814755 0.050574526 -0.07548201 0.05422993
-0.055028137 -0.09916202 0.008802023 0.061247904 -0.08217337 -0.01618376 0.08107984 0.16365777
-0.0038598 -0.06742748 0.26566708 0.053779367 -0.004190528 0.03506031 0.06956521 0.33542016
0.21172981 -0.048149932 0.09136142 0.08607261 0.038456723 -0.06974979 -0.038657013 -0.26407853
-0.09870382 0.067763805 0.10759195 -0.16992956 -0.21649487 -0.032610834 0.052023064 0.024014482
-0.11093093 -0.20989701 -0.06315627 -0.10143396 -0.08170373 0.07069883 -0.039530776 0.026798304
0.06801414 0.03650171 0.18443628 0.008378488 -0.04951501 0.069642976 0.056309544 0.013778891
-0.044973243 0.051543802 0.2800848 -0.0128452005 -0.0028404733 -0.033658598 -0.1659593 -0.09815383
0.11125074 -0.04754585 -0.050239522 -0.0036665967 0.093668655 -0.020111306 0.008866977 -0.28061795
0.08303061 0.110284775 -0.17067286 0.088056274 -0.027302127 0.0416547 0.07365285 -0.0402726
-0.10723847 -0.12613691 -0.046726186 -0.0071498514 -0.008404093 -0.043053225 0.041587785 0.08005944
-0.0047453432 -0.024469279 -0.0013605205 0.13784032 -0.06833855 -0.1016163 -0.098321214 -0.19745646
-0.025600284 -0.17613366 -0.03457938 -0.15352042 0.3273503 -0.06845574 -0.12766448 -0.03479663
00000000: b1c6 253d 319b 2ebd 6d6c 363d 8654 f6bc
00000010: fc1d 0dbd 08ea a03b 7785 1ebe 295a 53bc
00000020: d7a9 c1bd dc9b 693e 5551 8e3d 9f3b 973c
00000030: 2035 a03c 74c1 d5bd 072e 97bc 25e4 41bd
00000040: af6a 3dbd b67e bfbe 992a 04be a845 8abd
00000050: 60ff d63d 28b0 193d c372 0a3e f144 8a3d
00000060: 3a10 ea3b b5d7 d53d 6798 4e3d 4459 db3d
00000070: 51dd 95bd 5063 a23d 400f f93d 5c46 223d
00000080: 5fce d7bc 8547 953d b92a 293d 14df 423d
00000090: f23a 073e 3359 dabc 693e 143d 3003 2fbe
000000a0: 0b22 efbd 9969 fd3c a56e a2be 093e b4bd
000000b0: 4869 7c3d f944 41bd ba6f a83b 35ae b7be
000000c0: 8cb2 c1bd 9195 573d ddff 40bd a2e7 a0bd
000000d0: 841c ccbd 44c8 9dbd 3c42 1a3e d609 973e
000000e0: d9be 7bbd 8e9e 973d c1cb 813d 3152 943c
000000f0: 3a3e 063e 592c 233d 0251 523c 1027 dfbd
00000100: 81dd c53d f51d 813e 744c 8bbd 24c4 c23d
00000110: 85b8 903d a1df a83d 7690 043e 95d6 a93a
00000120: 4af1 72bd 5dce b2bb 0bce 05be d1a3 223d
00000130: 568b a53b 10d7 023d faf5 81bd 2a3e cc3b
00000140: 9bff 65bd 3026 4f3d c8f9 39be c774 4b3c
00000150: 6e6d 50bc fe32 263e ac3e 1a3e 5ef0 c93d
00000160: cf40 54be 65fc 943d 4a13 943d 06c5 e2bc
00000170: 81a6 d6bd 2422 4abd 5669 bf3d fe3e 9b3e
00000180: 8a27 4bbd 0442 bbbd 8820 213e bc08 5ebe
00000190: 1621 403d d1aa 8c3d 6e68 423d d4cb a73d
000001a0: cd0d c13d 9d29 513e 1ad7 a63d 6bc3 97bb
000001b0: c213 203c 4805 bc3d 2a6d e3bd 4adb 32bd
000001c0: 9d02 823d 2b6b 1e3e 8a5a 6a3c 2233 19be
000001d0: 83e1 873d 2437 503c b339 2b3e 3e79 443e
000001e0: 9bcb f13c a341 813e fcd7 213e 53e4 be3b
000001f0: 4e1c b2be b636 213d dbc2 383e 5c55 493c
00000200: 2fc3 783d 274b 6cbd 62cd 2a3d 2e0b 6c3c
00000210: d270 60bc 3a06 d13c 2a30 0a3e 576a 6e3d
00000220: 0b77 6a3e 2ce7 61be 03cc 4ebd 61c6 2abc
00000230: 1aac 83bd 69da 133c fa39 c73c ae6d 82bd
00000240: b705 a43b 4717 bc3e e449 363e ff74 983b
00000250: 4ea3 22bd 62c6 2cbd 11b0 91bd f00b 323d
00000260: 75ed b9bc 1b0f eabd 6ebd 36bd 6201 37be
00000270: a0dc a63d 3c27 4f3d 5096 9abd 3420 5e3d
00000280: 2f65 61bd 7515 cbbd 5c36 103c 15df 7a3d
00000290: 834a a8bd ce93 84bc 300d a63d e795 273e
000002a0: b3f4 7cbb 6b17 8abd 8405 883e c147 5c3d
000002b0: b250 89bb 669b 0f3d 3478 8e3d 31bc ab3e
000002c0: b3cf 583e dd38 45bd b21b bb3d d646 b03d
000002d0: cc84 1d3d fad8 8ebd d156 1ebd 4d35 87be
000002e0: 3a25 cabd c0c7 8a3d 2b59 dc3d 0402 2ebe
000002f0: d5b0 5dbe f092 05bd 2316 553d 05ba c43c
00000300: c12f e3bd 3eef 56be 1358 81bd 9cbc cfbd
00000310: 4954 a7bd 8cca 903d 06eb 21bd 1e88 db3c
00000320: ff4a 8b3d d182 153d dddc 3c3e ed45 093c
00000330: 40d0 4abd faa0 8e3d d6a4 663d dcc0 613c
00000340: dd35 38bd 981f 533d 4667 8f3e ad74 52bc
00000350: 3c27 3abb 99dd 09bd 3cf1 29be e004 c9bd
00000360: 6ed7 e33d 70bf 42bd f5c7 4dbd 494b 70bb
00000370: 5ad5 bf3d 77c0 a4bc cc46 113c 28ad 8fbe
00000380: f40b aa3d fcdc e13d dec4 2ebe d956 b43d
00000390: b6a8 dfbc 1e9e 2a3d 4ed7 963d e2f4 24bd
000003a0: d89f dbbd 092a 01be f563 3fbd 4d49 eabb
000003b0: 52b1 09bc 9458 30bd f457 2a3d 34f6 a33d
000003c0: d37e 9bbb cc73 c8bc 7e53 b2ba 0326 0d3e
000003d0: 15f5 8bbd 351c d0bd a25c c9bd 0732 4abe
000003e0: b0b7 d1bc 625c 34be 1ca3 0dbd 7534 1dbe
000003f0: 759a a73e 8632 8cbd 7aba 02be e986 0ebd

action_head.bias f4 [2]
0.05779418 0.018182153
00000000: 97b9 6c3d bdf2 943c

value_head.weight f4 [1, 128]
0.039454337 -0.029671712 0.03324318 -0.041921195 0.023017632 0.0067757475 -0.02693672 -0.056871515
0.027053801 0.008428495 -0.07096404 -0.07572166 0.06342407 -0.0016042627 0.048370346 -0.05981249
-0.038484998 0.002671047 0.0149161685 -0.076593906 0.040502485 0.027624644 0.008274961 -0.035229314
0.018655933 0.023870079 -0.011987105 0.060519096 0.039302357 -0.07881833 -0.032297023 0.058928058
0.061688896 -0.07430408 0.038886882 -0.00024173324 0.04207664 -0.06189937 -0.058624096 -0.024740255
0.0262445 -0.032356948 -0.04389783 0.07574342 -0.04495032 -0.026716258 0.047796946 0.036433592
-0.00396284 -0.030424772 0.027446073 0.084491625 -0.052159715 0.0006797784 -0.06726049 0.024603164
-0.04432403 -0.07932921 -0.021875374 0.07885143 0.05593335 0.032789793 -0.06131906 -0.07453991
-0.012400889 0.07874943 0.0025850662 -0.07181036 0.07829992 0.028406702 -0.032133583 -0.00959434
0.08576671 -0.019965328 0.053276718 0.061520237 0.094496734 0.053614732 0.012860484 -0.07806505
-0.00923639 0.037663743 -0.109652765 -0.022319306 0.07813108 -0.019370971 0.09795413 -0.044308383
0.071907446 -0.043429915 -0.031523734 -0.07609646 -0.043152384 -0.020281833 -0.059865016 -0.118485734
0.029627655 0.033549596 -0.01377913 -0.042470768 -0.010026577 -0.023200314 0.06730859 -0.039484344
-0.054632112 -0.03611434 -0.015997168 -0.06069219 0.08811464 -0.044090413 -0.03636819 0.03117376
-0.078284666 0.07080127 -0.057806734 0.022550933 -0.009006851 -0.053089444 -0.021635158 0.006362781
0.08229033 -0.0011594774 -0.007665925 -0.02300813 0.026034515 0.07861766 0.07618718 -0.056944564
00000000: df9a 213d 1712 f3bc 002a 083d 8fb5 2bbd
00000010: 798f bc3c 1707 de3b 65aa dcbc 1bf2 68bd
00000020: ef9f dd3c ac17 0a3c 9855 91bd f513 9bbd
00000030: 7be4 813d 2046 d2ba fc1f 463d f1fd 74bd
00000040: 72a2 1dbd bc0c 2f3b f262 743c 44dd 9cbd
00000050: efe5 253d 144d e23c b493 073c 9d4c 10bd
00000060: 54d4 983c 2f8b c33c 9065 44bc dfe2 773d
00000070: 82fb 203d 816b a1bd e249 04bd 8c5e 713d
00000080: 7fad 7c3d bd2c 98bd da47 1f3d c679 7db9
00000090: 8e58 2c3d 328a 7dbd d21f 70bd 13ac cabc
000000a0: b5fe d63c b888 04bd 36ce 33bd 5e1f 9b3d
000000b0: d41d 38bd 0edc dabc bbc6 433d 643b 153d
000000c0: b6da 81bb 5f3d f9bc 96d6 e03c f209 ad3d
000000d0: 6da5 55bd 2833 323a debf 89bd 938c c93c
000000e0: 1d8d 35bd 5a77 a2bd fc33 b3bc dc7c a13d
000000f0: 5e1a 653d 974e 063d b229 7bbd 61a8 98bd
00000100: 192d 4bbc 6247 a13d 376a 293b 4f11 93bd
00000110: b55b a03d 2cb5 e83c 819e 03bd 9431 1dbc
00000120: 75a6 af3d 548e a3bc b038 5a3d a5fc 7b3d
00000130: 8187 c13d 1f9b 5b3d c8b4 523c 92e0 9fbd
00000140: 3a54 17bc 4c45 1a3d a191 e0bd fad6 b6bc
00000150: 3003 a03d dfaf 9ebc 2d9c c83d b57c 35bd
00000160: 3644 933d 91e3 31bd 081f 01bd 76d8 9bbd
00000170: 8ec0 30bd 1626 a6bc 0535 75bd a6a8 f2bd
00000180: b2b5 f23c 4d6b 093d dcc1 61bc d4f5 2dbd
00000190: 8346 24bc 960e bebc 16d9 893d 56ba 21bd
000001a0: ecc5 5fbd a1ec 13bd 7e0c 83bc 6098 78bd
000001b0: 7375 b43d 2698 34bd d0f6 14bd 1d60 ff3c
000001c0: b653 a0bd 4200 913d c1c6 6cbd bcbc b83c
000001d0: 7991 13bc 5174 59bd 373c b1bc e07e d03b
000001e0: d587 a83d 9bf9 97ba 7132 fbbb 8c7b bcbc
000001f0: 5646 d53c 4c02 a13d 0608 9c3d b43e 69bd
